model/model.pth (torch, 16799 bytes, 4 tensors)

fc1.weight f4 [256, 11]
000000 e4 df 92 3e 42 c6 5c 3e c1 ac 63 bc d3 d4 8b 3e
       0.2868644 0.21560004 -0.013896168 0.2731081
000010 8a e7 81 bd 9e 44 75 3d 37 27 14 be c1 58 29 3e
       -0.06342991 0.05987989 -0.14468084 0.16537763
000020 86 78 80 3e 60 71 69 be ec 57 82 3e 4c 70 0f 3d
       0.25091952 -0.22797155 0.25457704 0.035019204
000030 dc 7f 84 3e 68 41 27 3d 9b be 34 3e 98 5e 2e bd
       0.258788 0.04083386 0.17650835 -0.04257068
000040 65 1a 68 3e ea 22 ae 3c 42 21 01 be 44 5c b3 3d
       0.22666319 0.021256883 -0.12610343 0.08757833
000050 8d ee 53 be 54 1c 30 bd 04 cd fa bd 70 d0 4c 3e
       -0.20696469 -0.042995766 -0.12246135 0.20001388
000060 56 b7 73 be 74 bf 1a be b0 d4 b4 bd 0c 08 2d be
       -0.23800406 -0.15112096 -0.088296294 -0.16897601
000070 1a 13 cc 3c c7 78 98 be 07 16 86 3e ba 22 83 be
       0.024911452 -0.29779646 0.2618868 -0.25612432
000080 20 10 68 3e 57 35 af 3d 16 3d 8b bd f1 d6 37 3e
       0.22662401 0.08555096 -0.067987606 0.17953087
000090 09 43 a1 3d c8 78 68 3e 19 b2 69 3d 2a 35 aa bd
       0.07874114 0.22702324 0.057054613 -0.083109215
0000a0 ff 56 e7 3d 18 32 b9 bd d4 8c 07 3e da cb 83 3e
       0.1129589 -0.09042758 0.13237315 0.25741464
0000b0 4d 98 6d 3e c8 10 e4 bd b1 d2 d5 3d 97 9b 0c 3d
       0.2320263 -0.11136013 0.10440577 0.03432807
0000c0 8f fa 00 3e 5e 26 21 be 69 00 83 be 98 7e ec bd
       0.1259558 -0.15737292 -0.2558625 -0.11547583
0000d0 be e7 65 be 90 1e 6e 3e 86 79 e0 3d 60 c6 ff 3d
       -0.22451684 0.23253846 0.10960679 0.12489009
0000e0 88 01 e9 3d dc b8 19 bd bc d8 41 3e 90 5e 5b be
       0.11377245 -0.03752981 0.18930334 -0.21422791
0000f0 d3 ed a1 3c 90 bb 52 be 3f c6 7b 3d bf 72 f2 bd
       0.019766724 -0.20579362 0.06146836 -0.11838292
000100 9e 36 40 3d 82 64 b1 bd 86 46 92 3e cc fe 36 be
       0.046927087 -0.086617485 0.2856943 -0.17870635
000110 ef 22 38 be c8 25 38 be 3d 7d 83 3e db 19 38 3e
       -0.17982076 -0.17983162 0.25681487 0.17978613
000120 01 32 9e 3e d0 90 63 be 7a e1 82 be 43 10 68 be
       0.30897525 -0.2222321 -0.2556265 -0.22662453
000130 49 e5 51 be eb 5c 2b 3e 17 c4 7f 3d 97 f4 9c 3e
       -0.20497622 0.16734664 0.062442865 0.30655357
000140 25 a4 12 be 42 06 5a be a3 83 2a 3e f5 80 d9 bd
       -0.14320429 -0.2129145 0.16651778 -0.106203
000150 b1 96 3c 3e a3 7b 7d bd 24 db 2a 3e 0e 43 66 be
       0.18416859 -0.061885487 0.16685158 -0.22486517
000160 36 cf 1b be 80 42 bc 3d 0c 8b 82 3d 92 6f 9d bd
       -0.15215763 0.09192371 0.06374177 -0.07687296
000170 16 de 24 3e c4 39 4f 3e 42 e5 5f be 9e d4 24 be
       0.16100344 0.2023688 -0.21864799 -0.16096732
000180 d4 06 85 3e 46 01 00 be 78 b8 e3 bd 0b 5f 95 be
       0.25981772 -0.12500486 -0.11119169 -0.29174075
000190 81 cf 30 be a8 40 9a 3d a0 02 23 bd 96 1d 60 be
       -0.17266656 0.075318635 -0.039797425 -0.21886286
0001a0 00 c0 e7 3b 58 e6 52 be 61 f8 82 be 0a 04 2a be
       0.0070724487 -0.20595682 -0.25580123 -0.16603103
0001b0 1d 1c 87 be 64 97 44 be 08 78 ab 3e 40 42 69 3d
       -0.26388636 -0.19198376 0.33490014 0.056947947
0001c0 84 49 be 3d 66 fb 8f be 00 c7 4a be c7 9b 7e bd
       0.09291366 -0.2812149 -0.19802475 -0.06216028
0001d0 05 f0 ba 3d 7f 5a 7a be b2 8b ca bd 9e 1f 17 be
       0.09127811 -0.24448584 -0.09889926 -0.14758155
0001e0 14 85 95 3c 69 4e ab bd ef 2f 44 bd 84 bb 57 be
       0.018251933 -0.08364565 -0.047897276 -0.21067625
0001f0 e9 24 52 be 04 da 45 be 60 0f ba bd b7 4c 80 be
       -0.20521893 -0.19321448 -0.09084964 -0.2505853
000200 75 92 78 3e 00 ad 5f bd 2a 97 7d 3e 5c a3 96 3d
       0.24274619 -0.054608345 0.24764696 0.07355377
000210 29 b9 82 be f8 8a 68 3e b5 c2 8c bd ea b6 bc bd
       -0.2553189 0.22709262 -0.06873075 -0.092145756
000220 f2 f5 8d be 0f 33 9a be 75 5c 9f 3d bd 08 6d bd
       -0.27726704 -0.3011708 0.07781307 -0.05786966
000230 bc 34 da 3d 60 4c 85 be 10 24 4a 3e 29 a3 62 be
       0.106545895 -0.26034832 0.19740319 -0.22132553
000240 9f 00 94 bd e3 b1 65 3d b6 cd fb 3d 03 c5 68 3e
       -0.07226681 0.05607785 0.122950956 0.22731404
000250 20 be 8a 3e 15 d0 74 be b3 e3 35 3d e5 cc 04 be
       0.2709818 -0.23907502 0.044406604 -0.12968786
000260 92 df 35 bd 34 18 67 be 4d d0 80 3e 8a 7f 75 be
       -0.044402666 -0.22567827 0.2515892 -0.23974434
000270 ff 77 60 3e e0 a2 d1 3d 3e f8 e2 3d be d9 16 be
       0.21920775 0.10236144 0.11082505 -0.147315
000280 e3 82 84 3e 51 94 79 3d 17 56 e0 3c c4 e5 8d be
       0.2588111 0.06093246 0.0273848 -0.2771436
000290 11 2a ea 3d 28 46 39 bd dd 71 0d be c9 d4 82 3e
       0.11433805 -0.04523292 -0.13812967 0.25552967
0002a0 d8 70 82 3d a2 d2 2a be e9 44 1c be 60 e9 6b bc
       0.063691795 -0.16681913 -0.15260662 -0.014398903
0002b0 36 c7 28 3e 7a ca 9d bd ef b2 33 be f4 74 d3 bd
       0.16482243 -0.07704635 -0.17548726 -0.103250414
0002c0 57 a8 66 be 08 38 dc 3d 6a 19 4c 3e 70 55 91 be
       -0.22525154 0.107528746 0.1993157 -0.28385496
0002d0 c5 43 29 3d 7f bb fd 3d 4a 91 35 3d 23 d6 10 be
       0.041324396 0.12389278 0.04432801 -0.14144187
0002e0 7f 09 0a 3e 90 f1 08 3e 59 ef c2 3d eb 5c 9e bd
       0.13480185 0.13373399 0.09518308 -0.077325664
0002f0 b5 2b c9 bd 8b 81 c4 3d 4e 6f 5c bd 44 36 96 bd
       -0.098227896 0.09595021 -0.053817086 -0.07334569
000300 fe db 2f 3e bd 03 79 3e 84 07 4e bd 08 a6 94 bd
       0.17173764 0.24317832 -0.050300136 -0.072582304
000310 e7 6c b0 bc 66 40 38 bc ec 73 94 3d fc 0a ad 3d
       -0.021536304 -0.0112458225 0.07248673 0.08449361
000320 08 36 8c be 0a e1 e3 bd 54 db 7b 3e 60 8c f0 3d
       -0.27384973 -0.11126907 0.24595386 0.117455244
000330 a0 b3 75 bc 4e 25 3a be b4 e4 3c be 6f 48 8a be
       -0.014996439 -0.18178293 -0.18446618 -0.27008387
000340 d7 93 d9 bd 07 39 0c 3e 95 7e 62 3e 94 f7 09 3e
       -0.10623901 0.13693629 0.221186 0.1347335
000350 8f bf 8a be f5 f8 4a be 19 95 a3 bc 30 26 98 3e
       -0.27099273 -0.19821532 -0.019968556 0.29716635
000360 7a 54 7a 3d fa ea bc bd a9 7f e3 3d 7f 43 dd bd
       0.06111572 -0.09224506 0.111083336 -0.108038895
000370 23 33 4a be b6 8b 7f 3e 5a 63 0c be 49 2d 65 bd
       -0.1974607 0.24955639 -0.13709775 -0.05595139
000380 aa 84 5e be b2 44 54 3e d1 1b 74 3e 1e 7b 0d 3e
       -0.21730295 0.2072933 0.23838736 0.13816497
000390 fa 6b 4f be d5 f0 92 be bb ad 83 be b0 3b 66 3e
       -0.20256034 -0.28699365 -0.25718483 0.22483706
0003a0 44 3b 14 3e 23 cf 67 3e 7b bd 05 3e 80 48 9c 3d
       0.14475733 0.2263761 0.13060562 0.07631016
0003b0 80 80 41 bb ef cd 6a be cc 53 92 be b1 64 90 be
       -0.0029526055 -0.2293012 -0.28579557 -0.2820182
0003c0 c1 c5 c4 3d d0 95 17 be 88 8b 78 bd 96 af 31 be
       0.09608031 -0.14803243 -0.060679942 -0.17352137
0003d0 5c 0b 61 bd ae 4e 59 be 94 bd 49 be eb d6 9e 3d
       -0.054942474 -0.2122142 -0.19701225 0.07755836
0003e0 72 84 b7 bd af 9b 27 3e 10 19 c6 bd b5 7c 62 be
       -0.08960809 0.16367982 -0.09672749 -0.22117884
0003f0 80 e6 59 bd 31 d9 33 be 64 6c c0 bd 65 cf a1 be
       -0.053198338 -0.1756332 -0.09395674 -0.31603542

fc1.bias f4 [256]
000000 55 e1 53 3e 80 21 0e be fb 2a 10 be bd 17 85 3e
       0.20691426 -0.13879967 -0.14078896 0.25994673
000010 c5 47 e8 3d 69 83 56 be 27 ed 13 3e 52 ae 2a 3e
       0.11341814 -0.20948566 0.14445935 0.1666806
000020 45 71 91 be 88 b4 66 3d 9f b9 fc 3d 0a 20 d2 bc
       -0.2840673 0.05632451 0.12340092 -0.025650043
000030 ee 46 92 3e c4 7b 6b be 11 13 28 3e 5b a0 27 be
       0.2856974 -0.22996432 0.16413523 -0.16369765
000040 a3 5e 95 be aa 94 45 3e f7 42 1c be 3b 14 bb 3c
       -0.29173765 0.19294992 -0.1525992 0.022836795
000050 0a ed 3a 3e e4 d9 8e be cb a3 8f be b1 71 64 3d
       0.18254486 -0.27900612 -0.28054652 0.055772487
000060 32 c4 83 3e b5 ce 49 bd 96 70 4b 3e 90 f1 ca 3d
       0.25735623 -0.049269397 0.19867167 0.09909356
000070 e0 bb c4 3d 4c d9 44 be 92 9d 94 3e c7 1c 0c 3e
       0.09606147 -0.19223517 0.29026467 0.13682853
000080 36 43 06 bb 72 ca 5d 3e ac 04 93 be e2 c4 6b 3c
       -0.0020486838 0.21659258 -0.28714502 0.014390202
000090 ee 54 a3 bd dd 9b 84 bd 6f 66 80 3d a2 72 08 3e
       -0.079751834 -0.06475041 0.06269538 0.13324979
0000a0 ec 68 fb 3c 2e 8e 63 be f1 7b 31 be 42 68 83 3c
       0.03068968 -0.22222206 -0.17332436 0.016040925
0000b0 0e 67 a4 bd d7 c2 91 be 98 6d 72 3e 8b 30 f9 3c
       -0.080274686 -0.28468964 0.23674619 0.030418655
0000c0 c3 d2 5d be dc cb f9 3d 51 3e 96 3d 03 76 17 be
       -0.2166243 0.12197086 0.07336105 -0.14791112
0000d0 97 0d d3 3d 99 ad 42 be dc 7c 98 3d ce 0b 83 3e
       0.103053264 -0.19011535 0.0744569 0.25594944
0000e0 c8 c3 41 3e 50 3a f5 3d a5 2d 11 bd da b8 35 3d
       0.18922341 0.11974013 -0.03544392 0.04436574
0000f0 6a d4 05 3e 3b b5 6b 3d a4 33 69 bd 39 7a 58 3d
       0.13069311 0.05754588 -0.056934014 0.052850936
000100 11 13 37 be 02 33 3a be 1a 4c 98 be 75 44 82 be
       -0.17878367 -0.1818352 -0.2974556 -0.25442854
000110 c0 c2 4a be ab 77 a2 3e 73 48 0f 3d 03 9a 9d be
       -0.19800854 0.31731924 0.034981202 -0.30781564
000120 27 46 24 be 3a 68 5d 3d c2 ea 18 be 75 95 d2 bd
       -0.16042386 0.054054476 -0.14933303 -0.10282413
000130 45 85 dc bd 94 e9 7a bd e8 8a 02 3d 4a e3 83 3c
       -0.10767607 -0.061257914 0.031870753 0.01609959
000140 da e8 58 3e 8d c1 3e 3e 08 0d 8b 3e b2 06 4e bc
       0.21182576 0.18628521 0.2715838 -0.0125748385
000150 77 fd d2 bd e9 05 b3 bc e5 24 38 be 71 30 da 3d
       -0.10302251 -0.021853404 -0.17982824 0.10653771
000160 7c 20 75 bd c1 60 de bd b0 68 8c be 58 98 1d 3e
       -0.059845433 -0.10858298 -0.2742362 0.15390146
000170 b8 df 1b 3e 8a 56 70 3e d0 51 0e be 05 a5 cf 3d
       0.1522206 0.23470512 -0.13898396 0.10138897
000180 db 99 8e bc 61 e3 33 be db b7 51 be f7 96 26 3e
       -0.017407348 -0.17567207 -0.20480292 0.16268526
000190 e0 63 6a be fb a9 6f 3e 82 30 77 3d 9c f6 e9 3d
       -0.22889662 0.23404686 0.060348995 0.1142399
0001a0 8d a7 29 3e c6 df 21 3e 98 71 9f 3d 8e 57 16 3e
       0.16567822 0.15808019 0.07785338 0.14681837
0001b0 ca 32 11 be a0 c2 37 be b8 95 85 bd 2c d5 22 3e
       -0.1417953 -0.17945337 -0.06522697 0.15901631
0001c0 6f 3d 53 3e 00 db 66 3e 29 e9 9e bd bc 8a 52 bd
       0.20628904 0.2254448 -0.077593155 -0.05140184
0001d0 50 80 1e be 0f e3 16 3e 94 04 7c be cb 37 ee bd
       -0.15478635 0.14735053 -0.24611121 -0.116317354
0001e0 98 5a 8a 3e 6d 26 a3 3d 09 28 0b be 4f 83 49 be
       0.27022243 0.079663135 -0.13589491 -0.19678997
0001f0 9d 06 5f be 7b 2b 91 3e 21 ca 8e be 23 a5 6f 3e
       -0.21779867 0.28353485 -0.27888587 0.23402838
000200 4a f7 70 3e 13 7e 90 bb 4d 73 5e bd 68 4b 4f 3e
       0.23531833 -0.0044095605 -0.05430918 0.20243609
000210 05 50 0c 3e ca d8 89 3e dd 73 5e 3e d6 76 4a be
       0.137024 0.2692321 0.21723886 -0.19771895
000220 10 c9 28 3e 34 1d 44 3e 52 19 83 be 9c 1b 04 3e
       0.1648295 0.19151765 -0.25605255 0.12901157
000230 9f 2e e8 bd ce 71 4f be a3 49 19 bd 4c 11 6c bd
       -0.11337017 -0.20258257 -0.03742374 -0.057633683
000240 15 fb 6f bd e8 5a 52 be a1 32 fb 3d 24 e0 9c 3e
       -0.05858906 -0.2054249 0.12265516 0.30639756
000250 ef 74 9e bd da 34 5e be c1 49 c7 bc e3 7b 93 be
       -0.07737147 -0.21699849 -0.02432716 -0.28805456
000260 aa 49 8e be a8 8e cb bd 1e b2 2c 3e 7e 7e 6f be
       -0.27790576 -0.09939319 0.16864821 -0.23388097
000270 dc 2b 36 bd 0c 1c 4b be 05 76 9b be e2 86 85 bd
       -0.04447542 -0.19834918 -0.3036348 -0.065198675
000280 79 8c 9d bd c6 30 9f bd c9 80 7f 3e 09 89 c6 3d
       -0.07692809 -0.07772975 0.24951471 0.09694106
000290 53 8c 20 3e e0 a4 d0 3d b6 c1 10 3d 19 73 32 3e
       0.1567853 0.101876974 0.035340987 0.17426719
0002a0 cf 33 29 be 8d ee 30 3e 05 12 53 3e f3 e2 36 be
       -0.1652367 0.172785 0.20612343 -0.17860012
0002b0 34 70 f2 bb c5 f1 19 be a7 4e 8b be ec 29 98 bc
       -0.0073986296 -0.15033634 -0.27208444 -0.018574677
0002c0 13 7b 36 3d 0d 66 a4 bd 90 41 89 3d 6e 24 68 be
       0.044550966 -0.08027277 0.06701958 -0.22670147
0002d0 00 fb 37 be bc 1e 3f 3e 77 3b 96 be ea 99 f4 3c
       -0.17966843 0.18664068 -0.29342243 0.029858548
0002e0 e3 79 3a 3e 5b 65 53 3e ee b1 e7 3d 2a fe 76 be
       0.18210559 0.20644133 0.11313234 -0.24120393
0002f0 4a 9a 6b 3d bb d9 c8 bd fe 40 c0 bd 6c d1 6f 3e
       0.05752019 -0.09807154 -0.09387396 0.23419732
000300 0f 60 de bd 8c 53 6d be c4 7f 85 be e7 0c 56 3e
       -0.108581655 -0.23176402 -0.2607404 0.2090336
000310 fb 48 fc 3c 2a ae 93 3e 5a fa 52 3d 0d c9 95 be
       0.030796519 0.28843814 0.051508285 -0.29254952
000320 8c ba ba 3d a5 7c 93 3e 1c 82 4e 3e 7c 04 9e 3d
       0.09117612 0.28806034 0.2016682 0.07715699
000330 9d f6 67 be bc 28 43 be b5 d5 47 3e 0f 50 36 be
       -0.22652669 -0.19058508 0.19515117 -0.17803977
000340 1b e6 ad 3d 9d 24 65 bd 6f 29 74 3d da d2 db 3c
       0.08491155 -0.05594312 0.059609827 0.02683394
000350 95 54 80 be 07 80 e5 bd ff ce 67 3e ca 79 39 bc
       -0.2506453 -0.1120606 0.22637556 -0.011320541
000360 e8 00 15 3e c0 b7 df bd ac c8 59 3e df 8c 7b bd
       0.14551127 -0.109237194 0.21267956 -0.061413642
000370 56 92 fd bd c7 86 45 3d a0 95 dd bd f8 64 f7 bd
       -0.12381427 0.048224237 -0.10819554 -0.12079805
000380 c6 e6 85 bd db d9 5a ba 05 4e 50 be 5d 51 a5 3d
       -0.06538157 -0.0008348503 -0.20342262 0.080721594
000390 5e ea 95 be d2 4b 4e 3e ac 6d 93 3e 5c 35 53 3d
       -0.2928037 0.2014611 0.2879461 0.05156456
0003a0 02 6c a8 bd bc 3c 97 be 14 67 00 3e 9c 8a 5f 3e
       -0.08223726 -0.29538524 0.12539321 0.21830219
0003b0 50 7e 93 3e 00 b3 9a 3c 86 de ad 3d 17 ff 88 3e
       0.28807306 0.018884182 0.084897086 0.26757118
0003c0 8b a4 2a 3d d1 0d 15 be 33 09 8d be cb e7 f9 3d
       0.041660827 -0.14556052 -0.2754608 0.12202414
0003d0 d7 71 55 3d 37 91 8b 3e db 32 23 be e6 cf 05 3e
       0.05211052 0.27259228 -0.15937369 0.13067588
0003e0 fe 96 fd bd 69 4a d4 bd be c8 2f 3e d5 82 8d be
       -0.12382315 -0.10365755 0.17166421 -0.2763888
0003f0 bf aa 5f 3e c1 a7 08 3e 57 ea 4a be ab 68 12 3e
       0.21842478 0.13345243 -0.19815956 0.1429774

fc2.weight f4 [3, 256]
000000 6f 1d 12 bd b2 7a 4b 3d 29 17 37 bc 5d 28 9a bd
       -0.0356726 0.04967756 -0.011174955 -0.0752723
000010 62 bf b5 bc 89 d1 60 3c 6d a0 2d bd a9 41 5f bd
       -0.022185985 0.013721832 -0.042389322 -0.054505978
000020 c8 e8 cb 3c f0 dd 3a 3c 26 62 73 bd 02 7b 5d bd
       0.024891272 0.011405453 -0.059419774 -0.054072388
000030 39 94 7b bc 6c 4c 22 bc 7e ca a9 3b 43 61 4f 3d
       -0.015355163 -0.009905916 0.0051816097 0.050629865
000040 57 15 52 3c 7f 56 57 3c d1 4f 6b 3d 38 89 16 bd
       0.012822471 0.013143181 0.057449166 -0.036751956
000050 20 11 f4 bb 36 d4 9c 3c 26 00 8c 3d d4 eb a1 3b
       -0.0074483305 0.019144159 0.06835966 0.004941443
000060 d0 11 63 bd ce 86 9b 3c f9 29 c0 bc 81 c9 27 3d
       -0.05543691 0.018985178 -0.023457514 0.040963653
000070 f1 ba 6c bb 30 62 a5 3c bd b8 96 bd b6 0d e5 bc
       -0.0036122168 0.020188421 -0.07359455 -0.02796064
000080 2e 3c 10 3c 52 e2 0d 3d 92 fe bc 3a ff 14 fb 3c
       0.00880341 0.034639664 0.001441913 0.03064966
000090 b2 c9 25 b9 2c 8b 09 bd 02 77 f3 bb 0f 91 6a bb
       -0.00015810764 -0.03357999 -0.0074299583 -0.0035792028
0000a0 3f 8d 14 bc 9f 36 63 3d da eb 30 bd ce 2c 78 ba
       -0.009066879 0.055472013 -0.043193676 -0.00094671256
0000b0 eb 4e 56 bd 5e 2b 27 3d d8 a6 f6 bb 1a 9b 1f bd
       -0.052321356 0.040812843 -0.0075272135 -0.038966276
0000c0 04 35 e9 bc 36 5d 9f bc e9 dd 1d 3c 60 ca e0 bb
       -0.028467663 -0.019453626 0.009635427 -0.0068600625
0000d0 8f b4 71 3d c6 d0 34 bd cb 25 50 bc b9 c3 19 bc
       0.059010085 -0.044144414 -0.012704323 -0.009385043
0000e0 4f be b7 3b bd 83 b9 3c 16 a9 fd 3b 88 b1 3c 3d
       0.0056074033 0.022645826 0.007741104 0.046067744
0000f0 e3 10 61 3d be e3 11 bd bb dc 87 bc 2b d0 2c bd
       0.054947745 -0.035617582 -0.016584745 -0.042190712
000100 6a 63 1d 3d a7 e2 30 bd d7 fb ee 3c 0d ae 27 3d
       0.038424887 -0.043184903 0.029172821 0.040937472
000110 52 3b 7e bc cb e2 80 bd 7c 8f 4b bd d8 7a d8 3b
       -0.015517073 -0.06293257 -0.049697384 0.006606441
000120 e3 35 b3 b9 75 12 2f bc 79 90 9f 3c 17 d4 9d bd
       -0.0003418169 -0.010685553 0.01947807 -0.077064686
000130 14 36 48 3c 10 c4 72 bd 5a 0c 80 bc b7 ff 97 3c
       0.0122199245 -0.05926901 -0.01563089 0.018554552
000140 26 6a 9b bd 1a c4 28 3d 20 1c 45 bd eb 4f 73 3d
       -0.075886056 0.041202642 -0.048122525 0.059402388
000150 3d 88 31 bd cd 5b 30 3c 06 c9 4a 3d f8 fd 50 bc
       -0.043342818 0.0107640745 0.049508117 -0.012755863
000160 5e 10 b9 bc 4d 76 a7 3c 2a 2d 39 bd 71 68 6b 3d
       -0.022590812 0.020442152 -0.045209087 0.05747265
000170 30 dc 28 bd d9 65 20 3d 24 1f be bc cb e0 19 bd
       -0.041225612 0.03915963 -0.023208208 -0.037567895
000180 3a 9a 1f 3d 58 79 07 bd 6b fb a5 3d 62 f9 54 3d
       0.03896544 -0.033074707 0.08104595 0.051995642
000190 bc 5d 12 3d fd 6c 2c bd cb 4c 1e bc f1 7c 33 bc
       0.035733923 -0.042096127 -0.009661864 -0.010955081
0001a0 af c3 c9 3a 60 b9 3f bd 6f 2e 00 3d e1 66 88 bc
       0.0015393401 -0.046807647 0.031294283 -0.016650619
0001b0 11 db 0a bd 52 01 3f bd 26 df 86 3b 0e ce 24 bd
       -0.033900324 -0.04663212 0.004115957 -0.04023557
0001c0 11 21 e2 3c 96 a6 c8 3c aa 05 81 3c 65 37 93 bc
       0.027603658 0.024493497 0.015749771 -0.01797075
0001d0 f1 18 4c bd 3e 71 b9 bc 0e 66 77 bd f4 12 78 3d
       -0.049828473 -0.022637006 -0.06040006 0.06056495
0001e0 bc 7c 1f bd 85 d8 cb 3c b1 df 81 bc 4b dd 19 3d
       -0.038937315 0.024883518 -0.015853735 0.037564557
0001f0 ce 3f 44 3d 83 87 82 bd d3 57 a0 3d 66 78 d6 bc
       0.04791241 -0.06373503 0.07829251 -0.026180457
000200 f5 38 43 bd 30 36 2d bd 35 1f 68 3c ea ec 08 3d
       -0.04766174 -0.042288005 0.014167597 0.033429064
000210 2b e1 95 bd c9 fa 2e 3d a7 04 19 3d cc d7 7b 3d
       -0.07318338 0.042719636 0.037357952 0.061485097
000220 38 f0 22 3d 64 13 2a bd e2 13 04 3c d6 87 1f 3d
       0.03977987 -0.0415224 0.008061381 0.038947903
000230 50 3e 82 bd fc 25 9b bc d7 77 bb 3c 18 e1 3f 3d
       -0.063595414 -0.01893901 0.022884293 0.046845526
000240 54 17 81 3c 84 83 32 3d 18 64 50 bc b4 76 c1 bc
       0.015758194 0.043582454 -0.012719177 -0.023616172
000250 62 e1 af bb 27 58 09 3d 72 a9 11 3c 74 5a 94 bc
       -0.005367444 0.033531334 0.008890497 -0.018109538
000260 4d c5 e5 3b 59 38 96 bd 43 88 50 bd 4f 64 1a 3d
       0.0070120455 -0.07334966 -0.0509112 0.037693318
000270 04 e1 f6 bc 9a ab 12 3d 12 2f 6e bc 66 40 af bc
       -0.030136593 0.035808183 -0.01453759 -0.021393012
000280 c5 e0 99 3b 84 42 18 3d f4 a1 07 3c 61 f4 1a 3c
       0.004695984 0.03717281 0.008278359 0.0094576785
000290 39 0f 04 3d 0b c6 f1 3c 96 03 78 bd fd 12 fc bc
       0.03224108 0.02951338 -0.060550295 -0.030770773
0002a0 84 b2 c8 bd 41 d9 e3 bc e1 57 55 bd 75 0b 91 3b
       -0.09799674 -0.027813556 -0.05208576 0.0044264146
0002b0 09 66 77 3d f2 88 1c 3d cf 30 0e bd 7c 71 a6 bc
       0.060400043 0.03821654 -0.034714516 -0.020317785
0002c0 a9 f6 02 3d b2 8a 85 3c d6 cc a8 bb 5d de 5f bd
       0.031973515 0.016301487 -0.0051513715 -0.05465542
0002d0 15 37 50 bb 25 f3 77 bb 62 fe 27 bd 7c 11 23 3d
       -0.0031771113 -0.0037834134 -0.041014083 0.039811596
0002e0 4f 7c 96 3c 22 20 01 bd af ce 23 bd 9f 2f 32 bd
       0.018369822 -0.031524785 -0.03999203 -0.043502446
0002f0 a0 2d b2 bc f2 50 31 bd b3 98 8b 3d 08 12 8c bd
       -0.021750271 -0.043290086 0.068162344 -0.06839377
000300 52 57 0a bd e8 7c 5d bd e5 ec ad 3c 9b 2d e1 bc
       -0.03377468 -0.054074198 0.021231124 -0.027487567
000310 dc ee 11 bd 64 2b 2b 3d c0 9a 40 bd 77 7d ed 3c
       -0.035628185 0.041789427 -0.04702258 0.02899049
000320 2a 55 70 bd 50 6d bc bc 4e 82 6d bd 6c 38 3a bd
       -0.05867497 -0.023001343 -0.057985596 -0.045463964
000330 f8 33 59 bd 9a b2 6f 3c c7 3f cf bc d7 9f 6c 3d
       -0.053028077 0.014629984 -0.025298966 0.057769623
000340 a7 d6 b5 bc 13 8d 12 bd 17 e1 cd 3c c0 02 5f 3d
       -0.02219708 -0.03577907 0.025131745 0.054445982
000350 e5 7e 2f bc 33 a0 d6 3c 62 35 9f 3c d5 b5 03 3d
       -0.010711406 0.026199436 0.019434635 0.03215583
000360 76 9b 00 3d 2c 3b 97 3d dc d7 3b bc f7 84 b2 bc
       0.03139826 0.07384333 -0.011465039 -0.021791918
000370 8f 88 ce 3c 5a 60 3a 3d 4a 5b e1 bc 4d cf 40 3b
       0.0252116 0.045502044 -0.02750935 0.0029420436
000380 0b 59 86 bc 8e 80 be 3c 05 78 8d bb f0 26 45 bd
       -0.01639988 0.023254659 -0.004317286 -0.048132837
000390 08 29 4e bd 7c 2c 5e bd 42 b9 b2 3b 1f 49 5a bd
       -0.0503321 -0.054241642 0.0054542134 -0.05329239
0003a0 db 57 14 bd 02 42 4e 3b 31 50 54 bd 45 c0 3b bc
       -0.036216598 0.003147245 -0.05183429 -0.011459415
0003b0 da 10 e8 bc ca 2d 8c 3b 87 82 a6 3c ab 8d 0c bd
       -0.028328348 0.0042779194 0.020325912 -0.034314793
0003c0 ec 0d 58 3d 00 90 ad ba 72 5a 86 bd 73 8a 52 bd
       0.052747652 -0.0013241768 -0.0656022 -0.051401567
0003d0 4c 94 98 3c 3f 21 fb 3a 31 08 19 bc cc b9 71 bd
       0.018625401 0.0019159688 -0.009340332 -0.05901508
0003e0 82 3b 90 3c 6d 0d 46 3c ce c1 93 bd d8 f7 34 bc
       0.0176065 0.012088162 -0.072147 -0.011045419
0003f0 4c e9 e4 bb 36 73 0c bc e0 4a 24 bd b8 7d 0c bd
       -0.006985819 -0.00857239 -0.04011047 -0.034299582

fc2.bias f4 [3]
000000 78 61 87 bd 60 b9 86 ba 90 da 99 3c
       -0.066103876 -0.0010278635 0.018780977
