model/model.pth (torch, 16799 bytes, 4 tensors)

fc1.weight f4 [256, 11]
00000000: 106c 8e3e d350 dc3d 2451 463d 8a69 ec3d
00000010: 8204 98bd b323 6b3d 0ad2 97be 193e 193e
00000020: 78c6 953e e8e9 eebd 26da 613e 2f68 a33c
00000030: 3d05 213e 2e76 e93d cbad df3d 985e 2ebd
00000040: cdc1 323e d7ec f13c 2f4b 37be f888 99bc
00000050: ad08 86be b92b 04be 04cd fabd 8507 ce3d
00000060: 56b7 73be a630 5cbe de5b 02be 52a8 49be
00000070: 569e cebd f2e1 aabe 64be f53d e70f 8dbe
00000080: 69b1 d53d 7019 913d 0d11 65bd aadc 5d3e
00000090: 2fa7 ca3c abcd 023e 7024 423d d921 94bd
000000a0: 692b 093e 4c27 da3d 0f6a 6a3e bbdb 923e
000000b0: 8020 983e c3f4 b9bd 8212 f93c eecd f53d
000000c0: 69e8 0a3e 1d8f 58be 455d 3dbe 1961 37be
000000d0: a898 8dbe 23f2 2a3e 5fb9 363e 3098 343d
000000e0: befa bf3d 5f8e 62bd df8f ca3d 905e 5bbe
000000f0: eb12 71bc 90bb 52be 9ece 1bbc 05a6 15be
00000100: 713e 133d b551 c3bd 6d7f 863e ef28 63be
00000110: 50b0 15be ac8a 58be e35c 913e 73eb 6b3e
00000120: 3791 703e da43 cdbd 268b debe 6d7b 95be
00000130: 552d 6bbe 500a 813d 5bf5 70be 092e b93e
00000140: e8be 0bbe dece 44be e52f 91bd a8e5 15be
00000150: 0ea9 90bb e957 c23d ee58 403d 97f9 91be
00000160: 36cf 1bbe f7bf 9c3d 9425 483d 926f 9dbd
00000170: e5be be3d ffcd e73d 42e5 5fbe 9ed4 24be
00000180: 7094 093e 55d4 0ebe 2afc 25be 0b5f 95be
00000190: 81cf 30be a840 9a3d a002 23bd 961d 60be
000001a0: 00c0 e73b 58e6 52be 61f8 82be 0a04 2abe
000001b0: 1d1c 87be 6497 44be 87a5 e83e c12f 693d
000001c0: 5b33 133c 3453 cfbd d51f 3cbe c9cc 37bd
000001d0: a9d2 e3bd 3028 32be ed14 4abe f00c b8bd
000001e0: 7f5c 5fbc 4726 323d 2686 42bd 63e9 42be
000001f0: 70c8 a4be 7097 22be 2bb5 84be eaac 83be
00000200: 3495 0b3e 79d4 6dbd ef60 123e fc94 823c
00000210: c1bd 93be 64d7 653e 39d0 82be e32b 16be
00000220: 70bd 7ebe f525 98be 0a61 163d 6c57 85be
00000230: 06aa 9ebc b12d 90be a01d 293d 29a3 62be
00000240: c9fc 89bd e86e ac3d 6548 e53d 662d 263e
00000250: afba 803e 15d0 74be 6c13 e23b 30e4 bcbc
00000260: 82bc acbd 3418 67be a669 0f3e feb7 e6be
00000270: 9341 893e 962e 013c 6910 303e 598f 4bbe
00000280: 47ad 303e 19f8 af3d 9804 f3bd 5be3 9ebe
00000290: c919 60bd e26d dabd a766 bdbc 3926 0c3f
000002a0: 7e0f bc3d 2734 f0bd 3558 b9bd 8569 9dbd
000002b0: f4a5 223e c8ed e53d 423d 09bd 4b45 52be
000002c0: 57a8 66be d3d1 a83d 509a 8b3d 7055 91be
000002d0: 71bb 133c 212a 903d e08f a4bc 94da 10be
000002e0: 7a55 d73c 517d 8d3d 596d 173d 3c18 37be
000002f0: d0b0 02be bb20 a238 3a2f edbd a45b 0ebe
00000300: e076 893c 72bd 043e 2720 91be 1fca 9bbe
00000310: 8542 67be 166b 8d3c 58af 203d fc0a ad3d
00000320: 0836 8cbe 0ae1 e3bd 79cc 593e 608c f03d
00000330: a0b3 75bc 4e25 3abe b4e4 3cbe 6f48 8abe
00000340: cad8 0ebe 9361 ac3d 50f8 5a3e 3a82 353e
00000350: cf6d 02be 9ace 96bd 0d9f f4bd 7122 203e
00000360: ebd9 a8bd 7ca3 80bc 9c1d f53d ec2f 98be
00000370: a4af c6bd a362 2b3e 29fc 23be 2ef9 3d3e
00000380: 61a1 7bbe a50c d63d 1186 9cbd f872 2f3d
00000390: 4f3b 9dbe c295 b5be 3080 8dbe 0347 123e
000003a0: d892 f73d 4fc7 853e d1f6 743e ef91 1f3d
000003b0: e244 0dbe 7c91 72be b592 84be 8c78 84be
000003c0: b2f8 d93d a013 47be 888b 78bd 96af 31be
000003d0: 5c0b 61bd ae4e 59be 94bd 49be ebd6 9e3d
000003e0: 7284 b7bd af9b 273e 1019 c6bd b57c 62be
000003f0: 80e6 59bd 1430 33be e476 82bd 5124 b8be
0.2781682 0.107576035 0.048417225 0.115435675 -0.07422735 0.057407092 -0.29652435 0.14965095
0.29252982 -0.11665708 0.22055873 0.01994714 0.15724654 0.11399494 0.1092182 -0.04257068
0.17456742 0.02953188 -0.17899774 -0.01874207 -0.26178494 -0.12907304 -0.12246135 0.10060028
-0.23800406 -0.21502933 -0.12730357 -0.19693115 -0.10088794 -0.33375508 0.11999205 -0.27551195
0.10434229 0.0708493 -0.055924464 0.21666208 0.024737922 0.12773769 0.04739803 -0.072330184
0.13395466 0.106520265 0.2289202 0.28683266 0.29712296 -0.09079888 0.030404333 0.120021686
0.1356522 -0.21148343 -0.18492611 -0.17908134 -0.2765553 0.1669393 0.17844151 0.04409045
0.09373997 -0.055311557 0.098907225 -0.21422791 -0.014713983 -0.20579362 -0.009509711 -0.14614113
0.03594822 -0.09537069 0.26269093 -0.22183584 -0.14618039 -0.21146649 0.2839118 0.23039035
0.23492895 -0.10022707 -0.43465537 -0.2919573 -0.22966512 0.06300795 -0.23531096 0.36167935
-0.13647044 -0.19219539 -0.07089213 -0.14638388 -0.004414684 0.09489424 0.04695981 -0.28510734
-0.15215763 0.07653802 0.048863962 -0.07687296 0.09313754 0.113185875 -0.21864799 -0.16096732
0.1343553 -0.13948186 -0.16209474 -0.29174075 -0.17266656 0.075318635 -0.039797425 -0.21886286
0.0070724487 -0.20595682 -0.25580123 -0.16603103 -0.26388636 -0.19198376 0.45438787 0.056930307
0.008984412 -0.101232916 -0.18371518 -0.044873033 -0.111241646 -0.17398143 -0.19734545 -0.08986843
-0.013632893 0.043493535 -0.047491215 -0.19034342 -0.32184172 -0.15878081 -0.2591947 -0.2571786
0.13631135 -0.058063958 0.1429479 0.015940182 -0.28855708 0.22445446 -0.25549486 -0.14665179
-0.24876952 -0.2971646 0.036713637 -0.2604326 -0.019368183 -0.2815986 0.04128802 -0.22132553
-0.06737668 0.08419591 0.11195449 0.16228256 0.25142428 -0.23907502 0.006899288 -0.023058027
-0.084343925 -0.22567827 0.14005145 -0.4506225 0.26807842 0.007884642 0.1719376 -0.19878902
0.172536 0.08592243 -0.118661106 -0.31032833 -0.05471209 -0.1066549 -0.023120238 0.54745823
0.091826424 -0.11728697 -0.09050027 -0.07686142 0.15883619 0.11226994 -0.033505686 -0.20534246
-0.22525154 0.08243146 0.06816542 -0.28385496 0.0090168575 0.070392855 -0.020088136 -0.14145881
0.026285876 0.06908668 0.036969516 -0.17880338 -0.12762761 7.7308585e-05 -0.115812734 -0.13902146
0.016780317 0.12962893 -0.28344843 -0.30427644 -0.22583969 0.017262977 0.03922972 0.08449361
-0.27384973 -0.11126907 0.21269406 0.117455244 -0.014996439 -0.18178293 -0.18446618 -0.27008387
-0.13949886 0.08417048 0.21383786 0.17725459 -0.12737201 -0.07363625 -0.11944399 0.15638138
-0.082446896 -0.015702955 0.11968538 -0.2972406 -0.097014695 0.16736846 -0.1601416 0.18552086
-0.2457328 0.104516305 -0.07642759 0.042834252 -0.3070931 -0.3546582 -0.27636862 0.14284901
0.12088555 0.26128623 0.23922278 0.038957532 -0.13795808 -0.2368831 -0.2589318 -0.2587322
0.10643138 -0.1944108 -0.060679942 -0.17352137 -0.054942474 -0.2122142 -0.19701225 0.07755836
-0.08960809 0.16367982 -0.09672749 -0.22117884 -0.053198338 -0.17498809 -0.06370333 -0.35965207

fc1.bias f4 [256]
00000000: d858 14bd 4530 87be 336c 8cbe 2966 0cbd
00000010: 0dc8 2a3d e29e a0be 1592 723c 140a 213d
00000020: e3ad d1be 88b4 663d 2c0f 533d 8e89 1fbe
00000030: 13a3 4e3e d13d 88be 8dcd e43d 4256 e1bd
00000040: fd27 ccbe b72b 643d d251 3ebe 259b 9ebd
00000050: dad6 863c 70b6 90be cba3 8fbe 8dfa 01be
00000060: 6bb0 a43c f8f3 d6bd fd65 0d3e 8549 5a3d
00000070: a563 b7bd 8b54 43be 4b4a 2c3e fca1 83bc
00000080: e0f5 c0bd 7366 0a3e 4a1c cfbe 0356 45be
00000090: 1987 0bbe c33d 67be 6f91 62bd 7b5f 80bd
000000a0: 269c 7cbb ce72 9ebe a49d 4dbe bf53 afbd
000000b0: 5e5c 89be 9620 c3be 3a67 063e 4f7e 41be
000000c0: c2d5 86be a953 e0bd 1665 22be 0376 17be
000000d0: 8e22 28bd 0e11 96be 1050 64bd db44 0ebc
000000e0: 8f6c c43d e18c 06bd 96a1 893b 0b37 77bd
000000f0: cdbc 2f3b ecf5 44bd 8d8c 55be 109f 12be
00000100: bd3b 96be 3a08 97be cd60 c9be 22a3 84be
00000110: b8e5 aebe f258 cc3d bdea b1bd 84cb c0be
00000120: e184 91be 44ba 23be 8af8 8dbe 0359 cbbd
00000130: cfd6 35be 8df5 f0bd 99a6 66be 2fdc 3abe
00000140: 17f6 efbd 109a 6b3b cd36 b73d d7da cebd
00000150: 1a5c 5bbe e8a7 4d3b 51ce 69be 2dad 6ebd
00000160: 0da3 7ebe 2019 84be 5424 b9be 2e4e 073e
00000170: 8b99 1dbd d59d 363e a5c5 85be 04f0 95bd
00000180: c120 13be 4186 aabe c848 8dbe adce 973c
00000190: 14ee a1be a61f 8c3d 79df 1ebd 26da 7b3d
000001a0: 029c 98bc f0db 38bd 61c5 aebd 5445 ca3d
000001b0: 1709 60be 18ee 95be bb66 8fbe 0851 b93b
000001c0: 3f81 e73c 88a6 4c3e 77fa 91be cdcb 4dbe
000001d0: d83c 4cbe 4bd3 2b3d ad1e a1be 9502 8cbe
000001e0: 42f0 e53d 7e44 05be f40a 4ebe 6d22 9fbe
000001f0: fba9 acbe 97e2 fd3d cd1c b6be ed4b c13d
00000200: 27cb f53d 3ecf 65bd 2f44 67be 7918 4d3e
00000210: 3781 843d e0b0 183d bb63 4b3e 4052 91be
00000220: a8d9 84bd c9cf e8bd 73de b1be 2d61 163d
00000230: b672 96be 7f24 8abe 5f99 2ebe f024 c9bd
00000240: f3ce 20be f60c 92be 68a9 d5bc 8998 6c3d
00000250: 4930 58be cda6 87be 700b 0c3b cf35 7abe
00000260: 2bcb 8ebe 468d 09be 0db9 173d dfb7 70be
00000270: b778 3dbe 2062 7bbe f677 f6be 0cce 42be
00000280: 68ae 1bbe e550 15be aa55 9c3e 2873 473d
00000290: 67ee 8d3d b5a5 9fbd 216d afbd 570d 06be
000002a0: 814b 64be eab3 0bbe 3aee 813b f38d a3be
000002b0: 1d52 a0bd 7053 52be b747 b4be 8289 50be
000002c0: f706 41be d55d 3bbe a0d2 adbd 6315 b0be
000002d0: 287b 96be 5878 083e 773b 96be 275f 77bd
000002e0: 3de5 d23d 6247 f33d 6c6c 283c 0043 c4be
000002f0: 0bd1 eabd 1564 35be e954 0bbe 654f c33c
00000300: 313f 89be 6155 d1be bc6a dcbe 85b3 803d
00000310: 0ebe 2cbd 64b6 7c3d e2c2 2fbd 18be abbe
00000320: a5e4 26bd 917d c03c 8547 07bc 31bd b0bd
00000330: 6d04 2ebe 0ce5 86be 44a6 863d fb9f 58be
00000340: 1876 06bd 8a5c 04bd ff93 72bd d75a 47bd
00000350: dba8 afbe 9558 5bbe e95a b8bc dcc9 43be
00000360: a990 52bd 63cc 14bd 2a4a b73d b482 36be
00000370: 0f7b 30be fb5b 76bd be96 a0be 5fcd 85be
00000380: 3256 09bd f0b0 23be ab53 b1be d7c9 593d
00000390: 1dd8 c6be d599 9bbd c704 af3d d0c2 0fbd
000003a0: 84a0 75be d12e cfbe 376f 943d 4bc6 2bbd
000003b0: 34f8 c53d fda3 42be fb2a 973c c527 14bd
000003c0: e9b6 f7ba 6c65 3fbe 16d7 b3be fd1c 23bc
000003d0: aca1 d5bd 2947 ff3c d60b a1be 1ed8 85bd
000003e0: 8f5e 63be d65e 98be f138 f3bd a681 21be
000003f0: be30 aa3d 8397 89bc f4a3 dcbe e6a5 7f3d
-0.03621754 -0.26404014 -0.274263 -0.034277115 0.04169469 -0.31371218 0.0148053365 0.039316252
-0.40952978 0.05632451 0.05152814 -0.15579817 0.20179395 -0.26609662 0.11172018 -0.110027805
-0.3987426 0.055705752 -0.185859 -0.07744435 0.016459871 -0.2826419 -0.28054652 -0.12693234
0.020103654 -0.10495752 0.13808437 0.05329277 -0.089545526 -0.1907522 0.16825216 -0.016068451
-0.09421897 0.13515644 -0.4045127 -0.19271092 -0.13625754 -0.22582154 -0.055314478 -0.062682115
-0.003854522 -0.30946964 -0.20079666 -0.08560895 -0.26828283 -0.381108 0.13125315 -0.18895839
-0.2633496 -0.10953457 -0.15858874 -0.14791112 -0.04104858 -0.29309887 -0.055740416 -0.008683409
0.095910184 -0.032849196 0.0042001707 -0.060355227 0.0026815415 -0.048086092 -0.20854397 -0.1431849
-0.29342452 -0.29498464 -0.39331666 -0.2590571 -0.34159636 0.099779025 -0.08687351 -0.3765527
-0.2842169 -0.15989023 -0.27728683 -0.09929087 -0.17757724 -0.11765585 -0.2252449 -0.18248056
-0.1171686 0.0035949983 0.08945999 -0.10100334 -0.21421853 0.0031380598 -0.2283261 -0.058270622
-0.24866886 -0.2580042 -0.3616053 0.13213417 -0.038476508 0.17833646 -0.26127353 -0.0732117
-0.14367963 -0.33305553 -0.2759459 0.018531168 -0.31626952 0.06841974 -0.03878734 0.06148734
-0.018629078 -0.045131624 -0.08533741 0.098765045 -0.21878468 -0.29283214 -0.28008065 0.0056554116
0.028259872 0.19985402 -0.28511402 -0.20097275 -0.19945085 0.04194955 -0.31468716 -0.2734572
0.11227466 -0.13014409 -0.20121366 -0.31080952 -0.33723435 0.12396734 -0.35568848 0.0943831
0.12001639 -0.056105845 -0.22584604 0.20028867 0.06469958 0.037278056 0.19862263 -0.28383064
-0.06486827 -0.11367757 -0.34740028 0.036713768 -0.29384392 -0.2698097 -0.17050694 -0.098214984
-0.15703945 -0.28525513 -0.026081756 0.057762656 -0.2111217 -0.26494446 0.0021369122 -0.24434589
-0.2788938 -0.13432798 0.037041713 -0.23507641 -0.1850308 -0.2454915 -0.48138398 -0.19023913
-0.1520325 -0.1458164 0.30534106 0.048693806 0.06930237 -0.07795278 -0.085657366 -0.13091026
-0.22294427 -0.1364285 0.0039651664 -0.31944236 -0.07828162 -0.20539641 -0.35210964 -0.20364955
-0.18850313 -0.18297513 -0.08487439 -0.34391317 -0.29390836 0.13327157 -0.29342243 -0.06039348
0.1029763 0.118788496 0.010279756 -0.38332367 -0.11465653 -0.1771396 -0.1360661 0.02384157
-0.26806024 -0.4088545 -0.43050182 0.06284241 -0.042173438 0.06169738 -0.042910464 -0.33543468
-0.040745396 0.023497375 -0.008256798 -0.086298354 -0.16993876 -0.26346624 0.065746814 -0.21154778
-0.032827467 -0.032314815 -0.05922317 -0.048670616 -0.34308514 -0.2142051 -0.022504287 -0.19119972
-0.05140749 -0.03632773 0.089496925 -0.17823297 -0.17234443 -0.060146313 -0.31365007 -0.26133248
-0.033529468 -0.15985465 -0.34634146 0.053171005 -0.38836756 -0.075977005 0.08545833 -0.035097897
-0.23987013 -0.40465406 0.07247775 -0.041937154 0.096664816 -0.19007869 0.018453112 -0.03617074
-0.0018899116 -0.18691033 -0.35125035 -0.009955642 -0.10431227 0.031161861 -0.31454343 -0.06535362
-0.2220404 -0.29759854 -0.11876095 -0.15772113 0.08310078 -0.01679588 -0.43093836 0.062414072

fc2.weight f4 [3, 256]
00000000: 2fba acbd 6f10 fd3c cf41 c5bc 1084 a7bd
00000010: 0bbc 17be 9b7f e1bc efa8 a3bd be77 983b
00000020: 72d3 4abb f0dd 3a3c cc23 4cbe f95b 68bd
00000030: fb95 e43d 2adf b9bc b4ff c23d c826 af3d
00000040: 0741 083c 135c d63d d14f 6b3d 8eb9 51bd
00000050: 819c 403d efc2 1fbe 2600 8c3d 88fe 80bb
00000060: f377 46bd 253c 4abc bb7b ce3d 7a35 083e
00000070: d40d dcbd 2cc1 66bd 75fc 5bbe 2fa3 1dbb
00000080: a3f5 2dbe 5eec c23c 213e 753a 3cc3 fa3c
00000090: 2a5f 1abe 4446 24bc 4680 e13b ac23 0cbc
000000a0: 3349 143e 5a5d 8abc 3feb 37be fe94 373b
000000b0: 790e f63b 5e38 e63c a140 ee3d 873e adbc
000000c0: 4874 113b 3b35 d0bc 9293 883c 60ca e0bb
000000d0: 1a34 07bd 7269 e0bd dc21 3339 4759 ba3d
000000e0: a790 0fbe 113a b73b 7804 0f3e dbc0 8d3d
000000f0: 2518 df3c 4f01 4fbd 2080 10ba 7f64 a8bd
00000100: 61e9 493c 0c43 1fbe 7deb bdbb 752a f43d
00000110: 128f 94bc 3b07 1a3d a1b3 92bc 0f4d 343a
00000120: 828b 11bd f5f0 82bc bac3 a8bb d0ee e1bd
00000130: cd59 0b3d b83a d7bd e4c9 cbbc 1b2c 01bc
00000140: 481e 253b 8b6b c4bb 4268 b03c 2739 1a3d
00000150: 2f5f 20be e8ef e43b 928b 90bd 56f4 1fbc
00000160: c6bf 5fbd a547 32bd f590 123d 8845 573d
00000170: 37fa 85bc bbe8 063e 76a8 35bc efa5 c83d
00000180: be7d 0b3c 8b2d b3ba 625d 513d 3b5d e73c
00000190: 90b3 c0ba 4868 ba3d 1bf8 ff3d 7d98 b83c
000001a0: 5993 a03a cd58 d7bd 1050 1a3c 9ce2 dcbb
000001b0: 3bc6 44bd 34b6 94bc 03a0 d7bc 274f 3c3d
000001c0: 0926 933c 9be1 2b3e 86a2 19bc 3be3 9cbc
000001d0: 3ac7 f9bd c92a 083e dfbb 8dbb 88d7 8fbc
000001e0: cfe7 07bd bb2a c3bc 1a95 5cbd b2a5 0f3c
000001f0: 7fd8 ab3a 2f84 80bd 63b5 3d3d 866a 9bbc
00000200: 45b5 72bd fcdd dfbd c238 fb3c 607f 423e
00000210: 017c f63d a9ca c63c 75a3 f83d 366b e23b
00000220: 8426 13bd 5a71 d8bd 61ce 96bb 590f 7a3a
00000230: 62fb 803c 36bc 99bd be85 84bc 0b45 143d
00000240: 00f5 d2bd 6c9f b5b9 78e3 7c3d aef8 aabd
00000250: 386e e6bc 6556 c93c 7254 d33d 4783 b9bd
00000260: 7b2b 153e b9a3 acbd 46cc 57bc e164 b2bc
00000270: 18d2 973a c66e 0a3d 7a33 47bc bf46 ddbd
00000280: 2e21 83bb 5e52 9bbd be1c 693e 969d 333e
00000290: 885b 9abd 51c8 6c3c 5ebf edbd eb95 0e3c
000002a0: 80bb 48be ab76 adbd 6e71 893c 8ffb 02bc
000002b0: 4a11 9e3b 9727 63bd 4408 81bd c4ce 043d
000002c0: 7eae 9a3c 500c 83bc 18a2 84bc f60c 9fbd
000002d0: 70f0 20bc 13cc 32bd 62fe 27bd 6bb7 46bd
000002e0: e251 4dbe 5ac4 4cbd 7e89 a63d 3c57 aabc
000002f0: 9253 d1bd 9448 a73d 6c67 133e eda7 d7bc
00000300: b6e9 c4bd d61d 41bb 2aba bc3b c83b 76bd
00000310: d8be 55be cf26 bc3c 4351 4fba a466 913b
00000320: 8256 8abe 8f2d 943c 6594 b2bb 28b9 80ba
00000330: 7408 16be 2de0 fe3c 7459 bc3d 1abf 0abb
00000340: a55d 0b3d c5cc f5bd 336e b53b 6e5b 95bc
00000350: 9811 9abb 5c14 39bc 9203 e7bc beb9 7e3a
00000360: c4dc 2b3c 37c8 583e 54f9 3dbd 218d 0fbe
00000370: 9031 b73b eafc b9bd 5de1 523d be62 7fbc
00000380: 3f70 2abe da56 66bb 085f 8f3c 6d43 b7bd
00000390: 259d edbd 6c6f fabc fe10 e3bc 6c01 d2bd
000003a0: 2252 c1bd 9bca 67bb e6f6 73be ba6c 123c
000003b0: 53be 5fbd 7270 a33b 655d 81bd 61c2 93bc
000003c0: cccf fabc 0090 adba a7df 3c3b de8c ad3b
000003d0: 303c cc3b dfd2 543c 43a9 20bd a2e3 e6bc
000003e0: f2cc bdbd f83d e63c f914 98bd d695 043e
000003f0: f058 39bc ce83 1e3a 849b e53b 720a 26be
-0.08433949 0.030891625 -0.024079232 -0.08179486 -0.14817826 -0.027526667 -0.07991206 0.0046529463
-0.0030948785 0.011405453 -0.1993553 -0.056728337 0.11161419 -0.02268942 0.09521428 0.08552319
0.008316285 0.104667805 0.057449166 -0.05120235 0.047024254 -0.15601705 0.06835966 -0.0039365925
-0.048454236 -0.012343441 0.100821935 0.1330165 -0.10744825 -0.056336567 -0.21483023 -0.0024053564
-0.16988234 0.02379435 0.0009355266 0.030610673 -0.15075365 -0.010026518 0.0068817465 -0.008553427
0.14481048 -0.016890217 -0.17960833 0.002801239 0.0075090495 0.02810305 0.11633421 -0.02114798
0.0022194553 -0.025416007 0.01667193 -0.0068600625 -0.033008672 -0.10957612 0.00017083384 0.090990596
-0.14020024 0.005591639 0.13966548 0.0692155 0.027233193 -0.050538357 -0.0005512256 -0.08222293
0.012323708 -0.1555292 -0.0057958947 0.119221605 -0.018134627 0.03760455 -0.01790792 0.00068779377
-0.035533436 -0.015984038 -0.0051502855 -0.11031878 0.034021188 -0.105092466 -0.024876542 -0.007884051
0.002519505 -0.0059942654 0.021534089 0.03765216 -0.1566131 0.006986607 -0.07057871 -0.009762844
-0.05462625 -0.043525357 0.035782773 0.052556545 -0.016354663 0.13174717 -0.0110875275 0.09797274
0.008513866 -0.0013670189 0.051114447 0.028242698 -0.0014701951 0.09101921 0.12498494 0.02253365
0.0012250944 -0.10514984 0.009418502 -0.006740881 -0.04804061 -0.018153287 -0.026321417 0.045973923
0.017962473 0.1678528 -0.0093771275 -0.01915132 -0.121962026 0.13297571 -0.0043253745 -0.017558828
-0.033180054 -0.023824086 -0.05385313 0.008767532 0.0013110786 -0.06275212 0.046315562 -0.018971693
-0.059254903 -0.10931012 0.030666713 0.18993902 0.120353706 0.024266558 0.12140552 0.006909753
-0.035925403 -0.10568495 -0.004602239 0.000953903 0.015744869 -0.075066015 -0.016177054 0.036198657
-0.10300636 -0.0003464179 0.06174037 -0.08348213 -0.028128728 0.024577329 0.10318841 -0.09058242
0.14567368 -0.08429665 -0.013171261 -0.021776618 0.0011582999 0.033797048 -0.012158269 -0.10804509
-0.004001758 -0.0758407 0.2276487 0.17540583 -0.075369895 0.014452056 -0.11608766 0.008702735
-0.19602776 -0.084699 0.01677772 -0.007994547 0.0048238384 -0.055457678 -0.06300405 0.03242375
0.018882032 -0.015997082 -0.016190574 -0.07766144 -0.00982295 -0.04365165 -0.041014083 -0.048514765
-0.20050767 -0.049991943 0.08131693 -0.02079355 -0.10221018 0.0816814 0.14394921 -0.02632519
-0.09614889 -0.0029467246 0.005759497 -0.060115606 -0.20873582 0.022967724 -0.0007908532 0.0044372845
-0.27019125 0.01808813 -0.005449819 -0.0009820806 -0.14651662 0.031112755 0.09196749 -0.0021171034
0.034024853 -0.12001947 0.0055368184 -0.018232074 -0.0047018044 -0.011296358 -0.028199945 0.0009717009
0.010489646 0.21170126 -0.046380356 -0.1401868 0.005590625 -0.09081443 0.051484454 -0.015587507
-0.16644381 -0.0035146982 0.01750137 -0.08948407 -0.116022386 -0.030570708 -0.027718063 -0.102541775
-0.09439494 -0.0035368565 -0.23824653 0.008937055 -0.054624867 0.0049877698 -0.06316642 -0.018037023
-0.030616663 -0.0013241768 0.002881983 0.0052963337 0.006232761 0.012989729 -0.03922392 -0.028184716
-0.09267606 0.02810572 -0.07425875 0.12947783 -0.011312708 0.0006046862 0.0070070643 -0.16214922

fc2.bias f4 [3]
00000000: 64a4 e0bc 2ba2 a4bd a77f 86bd
-0.027422138 -0.080387436 -0.065673165
