model/model.pth (torch, 16799 bytes, 4 tensors)

fc1.weight f4 [256, 11]
0.20878537 0.11766425 0.043699246 0.07695947 -0.10280531 0.058877636 -0.261418 0.18091874
0.29880273 -0.104810916 0.19770017 0.01994714 0.11195465 0.11229115 0.1092182 -0.04257068
0.1276982 0.030906111 -0.17899774 -0.06556922 -0.26178494 -0.12907304 -0.12246135 0.10060028
-0.23800406 -0.21502933 -0.12730357 -0.19693115 -0.10088794 -0.33375508 0.11999205 -0.27551195
0.10434229 0.04663013 -0.069256105 0.16244249 -0.0025092906 0.08660662 0.03054359 -0.04065463
0.18349965 0.112995416 0.21277963 0.25638574 0.26361647 -0.059869286 0.00029092043 0.09997253
0.15411581 -0.21439002 -0.20557745 -0.34187865 -0.2590151 0.16474053 0.16164541 0.04409045
0.09373997 -0.055311557 0.098907225 -0.21422791 -0.014713983 -0.20579362 -0.009509711 -0.14614113
0.03594822 -0.09537069 0.23992513 -0.29221418 -0.0970529 -0.21146649 0.31135833 0.29220515
0.18907598 -0.11770244 -0.3786356 -0.3482812 -0.22113203 0.00581608 -0.27571762 0.26390207
-0.18877865 -0.27112857 -0.12396805 -0.20538642 -0.094492845 -0.008698552 -0.08515692 -0.29478046
-0.15215763 0.07653802 0.048863962 -0.07687296 0.09313754 0.113185875 -0.21864799 -0.16096732
0.1343553 -0.13948186 -0.16209474 -0.29174075 -0.17266656 0.075318635 -0.039797425 -0.21886286
0.0070724487 -0.20595682 -0.25580123 -0.16603103 -0.26388636 -0.19198376 0.4811163 0.05129042
0.020923553 -0.07922855 -0.23161232 -0.003821347 -0.1450948 -0.22159357 -0.19016618 -0.107726045
0.06108871 0.017372312 -0.047491215 -0.19034342 -0.32184172 -0.1720475 -0.2591947 -0.2571786
0.12433589 -0.058063958 0.13101017 0.015940182 -0.3046468 0.22019793 -0.2596115 -0.13741738
-0.29522383 -0.28203332 0.0131224515 -0.29366234 -0.10781845 -0.29843226 0.039315823 -0.22132553
-0.06737668 0.060194094 0.11195449 0.16228256 0.22698504 -0.23907502 0.0055936007 -0.0309305
-0.10592735 -0.22567827 0.15014741 -0.42496383 0.3199491 0.00010647585 0.15726519 -0.16510361
0.13472024 0.03205187 -0.11580961 -0.3007877 -0.08752727 -0.14504664 -0.034782596 0.58395445
0.13863815 -0.13539395 -0.11758944 -0.053007983 0.18055494 0.14427298 -0.07739997 -0.14153606
-0.22525154 0.08243146 0.06816542 -0.28385496 0.0090168575 0.070392855 -0.020088136 -0.14145881
0.026285876 0.06908668 0.036969516 -0.21086794 -0.047147993 0.015026945 -0.0675147 -0.16599424
-0.01743681 0.16842175 -0.33153766 -0.33602643 -0.267654 0.052929107 0.03922972 0.08449361
-0.27384973 -0.11126907 0.21269406 0.117455244 -0.014996439 -0.18178293 -0.18446618 -0.27008387
-0.13949886 -0.006102122 0.19679078 0.14222808 -0.09245644 -0.088579215 -0.18184392 0.07169478
-0.07349948 -0.13265382 0.049132086 -0.30897987 -0.12122791 0.09180969 -0.19171059 0.1452707
-0.2457328 0.13353907 -0.16296506 0.008475643 -0.33882093 -0.35479626 -0.29465222 0.11415905
0.1862602 0.22036637 0.28797054 -0.01024894 -0.16245613 -0.2368831 -0.22633488 -0.3569887
0.11175277 -0.2041536 -0.060679942 -0.17352137 -0.054942474 -0.2122142 -0.19701225 0.07755836
-0.08960809 0.16367982 -0.09672749 -0.22117884 -0.053198338 -0.17498809 -0.06370333 -0.35965207
00000000: d5cb 553e f4f9 f03d fbfd 323d ed9c 9d3d
00000010: 978b d2bd ad29 713d 95d8 85be c342 393e
00000020: acfc 983e 1ba7 d6bd ea71 4a3e 2f68 a33c
00000030: 7b48 e53d e7f8 e53d cbad df3d 985e 2ebd
00000040: 51c3 023e d02e fd3c 2f4b 37be 2849 86bd
00000050: ad08 86be b92b 04be 04cd fabd 8507 ce3d
00000060: 56b7 73be a630 5cbe de5b 02be 52a8 49be
00000070: 569e cebd f2e1 aabe 64be f53d e70f 8dbe
00000080: 69b1 d53d 3cff 3e3d 25d6 8dbd 5357 263e
00000090: e972 24bb d05e b13d 8d36 fa3c 7885 26bd
000000a0: 55e7 3b3e 246a e73d e7e2 593e fe44 833e
000000b0: bdf8 863e 7f39 75bd ae86 9839 66be cc3d
000000c0: 89d0 1d3e 0f89 5bbe e582 52be b80a afbe
000000d0: a19d 84be beb1 283e 6086 253e 3098 343d
000000e0: befa bf3d 5f8e 62bd df8f ca3d 905e 5bbe
000000f0: eb12 71bc 90bb 52be 9ece 1bbc 05a6 15be
00000100: 713e 133d b551 c3bd efae 753e 199d 95be
00000110: acc3 c6bd ac8a 58be 5c6a 9f3e ea9b 953e
00000120: 229d 413e fa0d f1bd 86dc c1be ea51 b2be
00000130: 6f70 62be d194 be3b dc2a 8dbe 2c1e 873e
00000140: 314f 41be 5dd1 8abe f6e2 fdbd d150 52be
00000150: 7785 c1bd 5f84 0ebc c066 aebd 77ed 96be
00000160: 36cf 1bbe f7bf 9c3d 9425 483d 926f 9dbd
00000170: e5be be3d ffcd e73d 42e5 5fbe 9ed4 24be
00000180: 7094 093e 55d4 0ebe 2afc 25be 0b5f 95be
00000190: 81cf 30be a840 9a3d a002 23bd 961d 60be
000001a0: 00c0 e73b 58e6 52be 61f8 82be 0a04 2abe
000001b0: 1d1c 87be 6497 44be e054 f63e e715 523d
000001c0: df67 ab3c 9442 a2bd c82b 6dbe 906f 7abb
000001d0: bb93 14be 6de9 62be ecba 42be 799f dcbd
000001e0: 2838 7a3d 6150 8e3c 2686 42bd 63e9 42be
000001f0: 70c8 a4be 382d 30be 2bb5 84be eaac 83be
00000200: d1a3 fe3d 79d4 6dbd 8827 063e fc94 823c
00000210: aafa 9bbe 917b 613e cceb 84be 24b7 0cbe
00000220: 9427 97be ac66 90be 8dff 563c e95a 96be
00000230: ebcf dcbd 1dcc 98be a109 213d 29a3 62be
00000240: c9fc 89bd 158e 763d 6548 e53d 662d 263e
00000250: c46e 683e 15d0 74be 864a b73b f661 fdbc
00000260: 70f0 d8bd 3418 67be 3ec0 193e dc94 d9be
00000270: 5ed0 a33e c94b df38 200a 213e ec10 29be
00000280: 1af4 093e d248 033d 972d edbd d800 9abe
00000290: 7f41 b3bd 1b87 14be 3278 0ebd 0a7e 153f
000002a0: 29f7 0d3e b6a4 0abe bbd2 f0bd e61e 59bd
000002b0: 65e3 383e 4cbc 133e e083 9ebd d4ee 10be
000002c0: 57a8 66be d3d1 a83d 509a 8b3d 7055 91be
000002d0: 71bb 133c 212a 903d e08f a4bc 94da 10be
000002e0: 7a55 d73c 517d 8d3d 596d 173d c4ed 57be
000002f0: 411e 41bd 9333 763c 2645 8abd 65fa 29be
00000300: a4d7 8ebc c076 2c3e 4ebf a9be a80b acbe
00000310: f209 89be 31cc 583d 58af 203d fc0a ad3d
00000320: 0836 8cbe 0ae1 e3bd 79cc 593e 608c f03d
00000330: a0b3 75bc 4e25 3abe b4e4 3cbe 6f48 8abe
00000340: cad8 0ebe 4ff4 c7bb 8683 493e 3da4 113e
00000350: cd59 bdbd 0569 b5bd 4b35 3abe b6d4 923d
00000360: e586 96bd 67d6 07be ba3e 493d 9c32 9ebe
00000370: 5746 f8bd b806 bc3d c84f 44be d8c1 143e
00000380: 61a1 7bbe 77be 083e 50e0 26be 6cdd 0a3c
00000390: f079 adbe dba7 b5be a8dc 96be 38cc e93d
000003a0: feba 3e3e b9a7 613e e070 933e 2ceb 27bc
000003b0: e65a 26be 7c91 72be 55c4 67be 39c7 b6be
000003c0: a3de e43d a40d 51be 888b 78bd 96af 31be
000003d0: 5c0b 61bd ae4e 59be 94bd 49be ebd6 9e3d
000003e0: 7284 b7bd af9b 273e 1019 c6bd b57c 62be
000003f0: 80e6 59bd 1430 33be e476 82bd 5124 b8be

fc1.bias f4 [256]
-0.06641001 -0.3108673 -0.274263 -0.16467 0.018681211 -0.31371218 0.010396021 -0.09205425
-0.40952978 0.05632451 0.049106695 -0.16734636 0.1779902 -0.29053468 0.08860955 -0.07932902
-0.3987426 0.09025561 -0.185859 -0.1633304 -0.022691473 -0.27956513 -0.28054652 -0.12693234
-0.09217154 -0.10495752 0.065953925 0.05021956 -0.124051124 -0.21321516 0.15722962 -0.021515746
-0.09398551 0.048889294 -0.4045127 -0.19271092 -0.16554229 -0.22582154 -0.055314478 -0.062682115
-0.008361106 -0.30946964 -0.2279865 -0.08560895 -0.20146704 -0.381108 0.17220618 -0.21064687
-0.2633496 -0.22030675 -0.15858874 -0.14791112 -0.09415421 -0.2332233 -0.055740416 0.012705081
0.1254754 -0.062666945 -0.0001311205 -0.025882429 -0.103526846 -0.07581734 -0.22249588 -0.1421652
-0.29342452 -0.3210168 -0.42324945 -0.23832698 -0.34159636 0.04601339 -0.08522656 -0.3765527
-0.18985876 -0.15989023 -0.29586735 -0.106465146 -0.17757724 -0.17293392 -0.23292387 -0.18248056
-0.1546842 -0.0008110421 0.015080889 -0.16093427 -0.2286572 0.004805849 -0.26687863 -0.12718733
-0.22487871 -0.2903482 -0.39033192 0.08145692 -0.039617185 0.1464929 -0.26127353 -0.11394535
-0.14367963 -0.34992978 -0.2759459 -0.037488166 -0.38765872 0.008927364 -0.1132789 0.062267374
-0.018629078 -0.102194965 -0.08533741 0.05740036 -0.23632967 -0.29283214 -0.30985254 -0.045121267
-0.028707555 0.20390342 -0.3115099 -0.20097275 -0.2278823 -0.00014721206 -0.37051964 -0.30361572
0.14495195 -0.1708703 -0.20121366 -0.31080952 -0.33723435 0.038527753 -0.35568848 0.0943831
0.13318175 -0.08729109 -0.3106463 0.16593331 0.07144293 -0.03448765 0.15969045 -0.28383064
-0.14657459 -0.2171332 -0.3520081 0.058662627 -0.29384392 -0.30538982 -0.17050694 -0.098214984
-0.16871665 -0.28525513 -0.025446268 0.019327035 -0.2111217 -0.29649726 0.021418864 -0.2801703
-0.31468076 -0.17322576 -0.02524598 -0.2585521 -0.22531758 -0.2454915 -0.50160974 -0.2639947
-0.1520325 -0.16528201 0.25848868 0.023373775 0.099509336 -0.14312655 -0.10761354 -0.1461351
-0.2115057 -0.18208508 -0.040581655 -0.30118376 -0.09755652 -0.18366839 -0.36821243 -0.20364955
-0.24246739 -0.18297513 -0.095944345 -0.38502088 -0.29105666 0.13278387 -0.29342243 -0.10368534
0.10915328 0.14329097 0.007922358 -0.42855957 -0.18017092 -0.21647164 -0.15199786 0.0023327854
-0.2271039 -0.4382576 -0.43050182 -0.043113787 -0.018728716 0.008451057 -0.042910464 -0.33543468
-0.0448382 -0.040068608 -0.008256798 -0.11827933 -0.14868456 -0.2894773 0.06099599 -0.22905022
-0.120602764 -0.053658675 -0.05922317 -0.10675348 -0.34308514 -0.2452435 -0.093926236 -0.17842448
-0.05140749 -0.051604036 0.088695094 -0.16863185 -0.17234443 -0.1040698 -0.34170628 -0.34841168
0.013096433 -0.190504 -0.34634146 0.021818168 -0.38709193 -0.115666516 -0.012403037 -0.059829336
-0.23092648 -0.40465406 0.09757721 -0.050249774 0.025641927 -0.19007869 -0.028106889 -0.055406716
-0.045019083 -0.18691033 -0.35125035 -0.016860805 -0.20052177 -0.0099115195 -0.25402066 -0.10403307
-0.2039556 -0.29759854 -0.20558256 -0.2080683 0.08121747 -0.01679588 -0.43093836 0.037886865
00000000: f901 88bd 002a 9fbe 336c 8cbe 419f 28be
00000010: 5709 993c e29e a0be 1354 2a3c f086 bcbd
00000020: e3ad d1be 88b4 663d 1a24 493d d85c 2bbe
00000030: 1043 363e f6c0 94be ec78 b53d 4177 a2bd
00000040: fd27 ccbe efd7 b83d d251 3ebe 1640 27be
00000050: 78e3 b9bc 2923 8fbe cba3 8fbe 8dfa 01be
00000060: 6fc4 bcbd f8f3 d6bd da12 873d 06b3 4d3d
00000070: 840e febd 1355 5abe cd00 213e ca41 b0bc
00000080: 7a7b c0bd 2440 483d 4a1c cfbe 0356 45be
00000090: eb83 29be c33d 67be 6f91 62bd 7b5f 80bd
000000a0: 05fd 08bc ce72 9ebe 4b75 69be bf53 afbd
000000b0: 604d 4ebe 9620 c3be d156 303e d0b3 57be
000000c0: c2d5 86be 1898 61be 1665 22be 0376 17be
000000d0: ecd3 c0bd 17d2 6ebe 1050 64bd f928 503c
000000e0: a07c 003e 8757 80bd 647d 09b9 6307 d4bc
000000f0: e205 d4bd 1f46 9bbd f6d5 63be c193 11be
00000100: bd3b 96be 505c a4be 27b4 d8be fd0b 74be
00000110: b8e5 aebe 8978 3c3d 438b aebd 84cb c0be
00000120: 566a 42be 44ba 23be ed7b 97be 660a dabd
00000130: cfd6 35be 9715 31be 9883 6ebe 2fdc 3abe
00000140: 8965 1ebe 1d9c 54ba d515 773c f4cb 24be
00000150: 1d25 6abe 627a 9d3b 51a4 88be 653d 02be
00000160: 9b46 66be 85a8 94be 96d9 c7be e3d2 a63d
00000170: a145 22bd 3c02 163e a5c5 85be 2e5c e9bd
00000180: c120 13be ff29 b3be c848 8dbe 318d 19bd
00000190: 347b c6be 1444 123c c5fe e7bd 130c 7f3d
000001a0: 029c 98bc 984b d1bd 61c5 aebd a41c 6b3d
000001b0: 6800 72be 18ee 95be fea4 9ebe 14d1 38bd
000001c0: 1b2c ebbc 0fcc 503e 3a7e 9fbe cdcb 4dbe
000001d0: fa59 69be f05c 1ab9 c0b4 bdbe 8573 9bbe
000001e0: 496e 143e a0f8 2ebe f40a 4ebe 6d22 9fbe
000001f0: fba9 acbe 47cf 1d3d cd1c b6be ed4b c13d
00000200: cc60 083e acc5 b2bd 080d 9fbe 6cea 293e
00000210: ac50 923d ec42 0dbd e585 233e 4052 91be
00000220: a617 16be 2a58 5ebe 683a b4be 3948 703d
00000230: b672 96be 0e5c 9cbe 5f99 2ebe f024 c9bd
00000240: 0fc4 2cbe f60c 92be b174 d0bc bb53 9e3c
00000250: 4930 58be 7dce 97be 9d76 af3c 7b72 8fbe
00000260: d61d a1be 1862 31be a8d0 cebc f160 84be
00000270: a7b9 66be 2062 7bbe 7f69 00bf 502a 87be
00000280: 68ae 1bbe b03f 29be a158 843e 5c7a bf3c
00000290: 8dcb cb3d c48f 12be 7d64 dcbd 71a4 15be
000002a0: f394 58be 8374 3abe f338 26bd c234 9abe
000002b0: b6cb c7bd 9113 3cbe 5786 bcbe 8289 50be
000002c0: 5f49 78be d55d 3bbe 787e c4bd 7521 c5be
000002d0: 6105 95be 7ff8 073e 773b 96be fb58 d4bd
000002e0: c18b df3d deba 123e c7cc 013c 296c dbbe
000002f0: ba7e 38be beaa 5dbe 54a5 1bbe a5e1 183b
00000300: ed8d 68be 4d63 e0be bc6a dcbe 1598 30bd
00000310: f76c 99bc 4d76 0a3c e2c2 2fbd 18be abbe
00000320: 43a8 37bd fb1e 24bd 8547 07bc 6f3c f2bd
00000330: c440 18be 5e36 94be eed6 793d 248c 6abe
00000340: 95fe f6bd 33c9 5bbd ff93 72bd 92a1 dabd
00000350: dba8 afbe 1d21 7bbe 665c c0bd e8b4 36be
00000360: a990 52bd c15e 53bd c6a5 b53d d4ad 2cbe
00000370: 0f7b 30be 8c22 d5bd 20f4 aebe 0463 b2be
00000380: 6c92 563c 7b13 43be ab53 b1be 04bc b23c
00000390: ea30 c6be 91e2 ecbd 1c36 4bbc 9b0f 75bd
000003a0: fe77 6cbe d12e cfbe 8fd6 c73d b5d2 4dbd
000003b0: 050f d23c fda3 42be 6b40 e6bc 27f2 62bd
000003c0: ee65 38bd 6c65 3fbe 16d7 b3be ac1f 8abc
000003d0: 9455 4dbe ed63 22bc ff0e 82be 4a0f d5bd
000003e0: bdd9 50be d65e 98be 3c84 52be db0f 55be
000003f0: 5855 a63d 8397 89bc f4a3 dcbe 422f 1b3d

fc2.weight f4 [3, 256]
-0.072755344 -0.013716507 -0.024079232 -0.0839119 -0.06262456 -0.027526667 -0.06954108 -0.013470454
-0.0030948785 0.011405453 -0.18627961 -0.056728337 0.104383774 -0.00023818482 0.050666206 0.065398596
0.008316285 0.13967985 0.057449166 -0.010560817 0.03008154 -0.16503778 0.06835966 -0.0039365925
-0.021437854 -0.012343441 0.07166083 0.10192887 -0.04584966 -0.056336567 -0.24012755 -0.002282316
-0.15588157 -0.0055292193 0.0009355266 0.030610673 -0.12580833 -0.010026518 0.0068817465 -0.008553427
0.10044253 -0.016890217 -0.16232099 0.002801239 -0.027478455 0.02810305 0.16434789 0.0033274563
0.0022194553 0.0002586905 0.01667193 -0.0068600625 0.011500296 -0.09958221 0.00017083384 0.06954613
-0.13322118 -0.011376037 0.11589186 0.06348492 0.0089779645 -0.035671435 -0.07533792 -0.09374703
0.012323708 -0.18439594 -0.00821536 0.11841435 -0.018134627 0.0018243233 0.0052075204 0.00068779377
-0.017376019 -0.015984038 -0.005153594 -0.04892935 0.034021188 -0.012961249 -0.024894066 -0.007884051
-0.016426917 -0.030787438 0.0027437948 0.035661444 -0.19757771 -0.030686758 -0.10111213 0.008128675
-0.0063832686 -0.07334709 0.004353396 0.014884142 0.016013166 0.08044078 -0.0110875275 0.06552637
0.008513866 -0.0016018623 0.051114447 0.018473066 0.005715982 0.03711314 0.09802157 0.018003272
0.0012250944 -0.09984003 0.009418502 0.026586793 -0.048846778 -0.018153287 -0.026321417 0.0130794
-0.019154266 0.19219144 0.0002919132 -0.01915132 -0.13151501 0.12060214 -0.050197024 -0.019923734
-0.010833732 -0.0007618921 -0.05385313 0.008767532 0.0013110786 -0.07412963 0.046315562 -0.018971693
-0.0028667338 -0.1218535 0.004664488 0.17653769 0.13397491 -0.0012508732 0.10118287 0.006909753
-0.0011473093 -0.10338383 -0.004602239 0.018062329 0.015744869 -0.12087297 -0.016177054 0.036198657
-0.096239954 -0.0003464179 0.033730626 -0.014739634 -0.028128728 0.024577329 0.09461287 -0.11158707
0.18296568 -0.032971717 0.003508095 0.015894463 -0.01110736 0.033797048 0.0092926035 -0.1054292
-0.004001758 -0.06295402 0.22920774 0.16439594 -0.028286329 0.014159497 -0.10663486 0.0011701321
-0.17926787 -0.048066325 -0.00514954 -0.010393716 -0.006391691 -0.051064402 -0.06300405 0.03242375
0.0037125493 -0.015997082 -0.053009823 -0.0772907 -0.00982295 0.019663962 -0.041014083 -0.04661183
-0.24041572 -0.08050581 0.111535236 -0.02079355 -0.07154223 -0.0026042627 0.14662176 -0.0003713895
-0.05985114 -0.0029467246 0.005759497 -0.037115745 -0.21894519 -0.008514446 -0.0007908532 0.0044372845
-0.28798872 0.001719938 -0.005449819 -0.023063175 -0.018231692 0.0003101528 0.059342124 -0.010395629
-0.020232834 -0.18015699 0.0055368184 0.042277142 -0.0047018044 0.00942148 0.024213344 -0.02892386
0.010489646 0.20504752 -0.015150966 -0.14971352 0.005590625 -0.12894905 0.040583152 -0.0064527304
-0.15622632 0.025163643 0.01750137 -0.058351588 -0.18134208 -0.02760748 -0.0350472 -0.12794188
-0.15324269 -0.0035368565 -0.24823743 -0.012632493 -0.048921518 0.0049877698 -0.0756675 -0.007838987
-0.040831693 -0.0013241768 0.002881983 -0.037241116 -0.010774543 0.013124301 -0.10747707 -0.015694909
-0.06043514 0.02810572 -0.028109431 0.14065526 -0.02326932 0.0006046862 0.0070070643 -0.24207516
00000000: c100 95bd 33bb 60bc cf41 c5bc 01da abbd
00000010: 4e41 80bd 9b7f e1bc 8e6b 8ebd 2eb3 5cbc
00000020: 72d3 4abb f0dd 3a3c 15c0 3ebe f95b 68bd
00000030: 29c7 d53d 40c1 79b9 5e87 4f3d b3ef 853d
00000040: 0741 083c 3c08 0f3e d14f 6b3d 4707 2dbc
00000050: 906d f63c aaff 28be 2600 8c3d 88fe 80bb
00000060: 709e afbc 253c 4abc eac2 923d 15c0 d03d
00000070: dacc 3bbd 2cc1 66bd ffe3 75be e992 15bb
00000080: 6b9f 1fbe 742e b5bb 213e 753a 3cc3 fa3c
00000090: e6d3 00be 4446 24bc 4680 e13b ac23 0cbc
000000a0: d0b4 cd3d 5a5d 8abc 7937 26be fe94 373b
000000b0: 7f1a e1bc 5e38 e63c d04a 283e 7411 5a3b
000000c0: 4874 113b daa0 8739 9293 883c 60ca e0bb
000000d0: bd6b 3c3c c2f1 cbbd dc21 3339 346e 8e3d
000000e0: 226b 08be 8f62 3abc b658 ed3d 6204 823d
000000f0: 5018 133c 361c 12bd c44a 9abd 71fe bfbd
00000100: 61e9 493c 4ad2 3cbe b899 06bc 3983 f23d
00000110: 128f 94bc 221e ef3a d9a3 aa3b 0f4d 343a
00000120: 2758 8ebc f5f0 82bc 7bdf a8bb 246a 48bd
00000130: cd59 0b3d 6b5b 54bc a4ee cbbc 1b2c 01bc
00000140: be91 86bc f035 fcbc 3dd1 333b bc11 123d
00000150: d051 4abe cc62 fbbc e013 cfbd 222e 053c
00000160: bd2a d1bb 0037 96bd efa6 8e3b 9edc 733c
00000170: 0b2e 833c 23be a43d 76a8 35bc b132 863d
00000180: be7d 0b3c 94f5 d1ba 625d 513d d454 973c
00000190: 224d bb3b f303 183d 88bf c83d 997b 933c
000001a0: 5993 a03a ee78 ccbd 1050 1a3c 8ccc d93c
000001b0: 8f13 48bd 34b6 94bc 03a0 d7bc fb4a 563c
000001c0: 68e9 9cbc d5cd 443e ed0b 9939 3be3 9cbc
000001d0: dfab 06be 41fe f63d 659b 4dbd 1937 a3bc
000001e0: f77f 31bc b7b9 47ba 1a95 5cbd b2a5 0f3c
000001f0: 7fd8 ab3a 47d1 97bd 63b5 3d3d 866a 9bbc
00000200: d0df 3bbb 548e f9bd 90d8 983b 4cc6 343e
00000210: b830 093e 57f4 a3ba f738 cf3d 366b e23b
00000220: 5061 96ba e7ba d3bd 61ce 96bb 73f7 933c
00000230: 62fb 803c 3f8c f7bd be85 84bc 0b45 143d
00000240: 7419 c5bd 6c9f b5b9 2029 0a3d 817e 71bc
00000250: 386e e6bc 6556 c93c 64c4 c13d c387 e4bd
00000260: 5b5b 3b3e 5a0d 07bd 11e8 653b 1b35 823c
00000270: a5fb 35bc c66e 0a3d 0140 183c 44eb d7bd
00000280: 2e21 83bb 0aee 80bd 6fb5 6a3e 6957 283e
00000290: bbb8 e7bc 3cfd 673c 6163 dabd 1e5f 993a
000002a0: ff91 37be 32e1 44bd 79bd a8bb 684a 2abc
000002b0: 6471 d1bb e828 51bd 4408 81bd c4ce 043d
000002c0: 3e4e 733b 500c 83bc d420 59bd 964a 9ebd
000002d0: 70f0 20bc 5116 a13c 62fe 27bd 0cec 3ebd
000002e0: 8a2f 76be 3be0 a4bd 966c e43d 3c57 aabc
000002f0: bc84 92bd 47ac 2abb 0424 163e 0eb7 c2b9
00000300: 7826 75bd d61d 41bb 2aba bc3b ae06 18bd
00000310: 2b33 60be 2d80 0bbc 4351 4fba a466 913b
00000320: 4273 93be 8b6f e13a 6594 b2bb fcee bcbc
00000330: a15a 95bc 019c a239 ba10 733d 6e52 2abc
00000340: 54bf a5bc 137b 38be 336e b53b cc2a 2d3d
00000350: 9811 9abb 8d5c 1a3c 105b c63c bbf1 ecbc
00000360: c4dc 2b3c faf7 513e c23b 78bc 804e 19be
00000370: 9031 b73b 380b 04be 853a 263d 6d71 d3bb
00000380: cbf9 1fbe fc23 ce3c 085f 8f3c 1302 6fbd
00000390: bdb1 39be 1529 e2bc a78d 0fbd 3203 03be
000003a0: a7eb 1cbe 9bca 67bb f431 7ebe 84f8 4ebc
000003b0: ee61 48bd 7270 a33b 90f7 9abd 186f 00bc
000003c0: 223f 27bd 0090 adba a7df 3c3b 248a 18bd
000003d0: b587 30bc 4f07 573c f01c dcbd 9c92 80bc
000003e0: d68a 77bd f83d e63c c045 e6bc ef07 103e
000003f0: 4d9f bebc ce83 1e3a 849b e53b 8de2 77be

fc2.bias f4 [3]
-0.024431756 -0.07852163 -0.07031207
00000000: 1b25 c8bc f3cf a0bd c6ff 8fbd
